…
          "base_uri": "https://localhost:8080/"
        },
        "id": "Oxr5xiGss-tr",
        "outputId": "3444ad10-3f0e-4242-a91d-6dd271e83316"
      },
      "execution_count": 22,
      "outputs": [
        {
          "output_type": "stream",
          "name": "stdout",
          "text": [
            "Model: \"sequential\"\n",
            "_________________________________________________________________\n",
            " Layer (type)                Output Shape              Param #   \n",
            "=================================================================\n",
            " conv2d (Conv2D)             (None, 32, 32, 32)        896       \n",
            "                                                                 \n",
            " max_pooling2d (MaxPooling2D  (None, 16, 16, 32)       0         \n",
            " )                                                               \n",
            "                                                                 \n",
            " conv2d_1 (Conv2D)           (None, 16, 16, 64)        18496     \n",
            "                                                                 \n",
            " max_pooling2d_1 (MaxPooling  (None, 8, 8, 64)         0         \n",
            " 2D)                                                             \n",
            "                                                                 \n",
            " conv2d_2 (Conv2D)           (None, 8, 8, 64)          36928     \n",
            "                                                                 \n",
            " max_pooling2d_2 (MaxPooling  (None, 4, 4, 64)         0         \n",
            " 2D)                                                             \n",
            "                                                                 \n",
            " dropout (Dropout)           (None, 4, 4, 64)          0         \n",
            "                                                                 \n",
            " flatten (Flatten)           (None, 1024)              0         \n",
            "                                                                 \n",
            " dense (Dense)               (None, 256)               262400    \n",
            "                                                                 \n",
            " dense_1 (Dense)             (None, 10)                2570      \n",
            "                                                                 \n",
            "=================================================================\n",
            "Total params: 321,290\n",
            "Trainable params: 321,290\n",
            "Non-trainable params: 0\n",
            "_________________________________________________________________\n"
          ]
        }
…
